models/lstm_attn_20250715_223358.pt (torch, 25688 bytes, 6 tensors)

lstm.weight_ih_l0 f4 [128, 9]
0	0x3d4c2316	0.049838148
1	0x3e2ce6fd	0.1688499
2	0x3e037dfe	0.12841031
3	0x3debd2f0	0.115148425
4	0xbdf54801	-0.11976624
5	0x3e010d48	0.12602723
6	0x3dc24cdb	0.09487315
7	0x3c8aa4c3	0.016924268
8	0x3e5f91af	0.21832918
9	0xbd83cc11	-0.06435407
10	0xbdd01692	-0.10160555
11	0xbd5de758	-0.054175705
12	0x3df45b91	0.119315274
13	0xbdb66ee4	-0.089078695
14	0x3d6d57ca	0.05794505
15	0xbd902c2d	-0.07039676
16	0x3da0876e	0.07838331
17	0xbda1671c	-0.07880995
18	0x3d8fe856	0.070267364
19	0x3db2fb17	0.08739298
20	0x3da8ba2b	0.08238634
21	0x3e8a6314	0.27028716
22	0x3dd6344e	0.10459195
23	0xbe356edf	-0.17718075
24	0xbe1afd12	-0.15135601
25	0xbdb21981	-0.08696271
26	0xbe40f4e5	-0.1884342
27	0xbde753f1	-0.112953074
28	0xbd38cd93	-0.045117926
29	0xbe16c231	-0.14722516
30	0x3e613692	0.21993473
31	0x3df31b3c	0.11870429
32	0xbca5c4b4	-0.020235397
33	0xbe0742d1	-0.13209082
34	0x3d4b86db	0.049689155
35	0xbd2017a6	-0.039085053
36	0xbe607b34	-0.21921998
37	0xb8eb3350	-0.00011215231
38	0x3e0813b5	0.13288768
39	0x3dab39c7	0.083606295
40	0xbd35623c	-0.044283137
41	0x3e3d295c	0.18472809
42	0xbe40c876	-0.1882647
43	0xbd4dba98	-0.050226778
44	0xbe279599	-0.1636566
45	0xbc3791bb	-0.011204178
46	0x3e274926	0.16336498
47	0xbdad5514	-0.08463493
48	0xbdf2d8d6	-0.118577644
49	0xbe413300	-0.18867111
50	0xbc80b07f	-0.01570916
51	0x3e3fa651	0.18715788
52	0xbd55802a	-0.05212418
53	0x3d67fb61	0.056636218
54	0x3c975901	0.018475058
55	0x3e25c815	0.16189606
56	0x3df2eb61	0.11861301
57	0xbcfef538	-0.031122789
58	0xbe563b81	-0.20921136
59	0xbdcda14f	-0.10040533
60	0x3e0a17e4	0.13485676
61	0x3e0c52db	0.13703482
62	0xbd813321	-0.0630858
63	0xbde8e25c	-0.113712996
64	0xbd89b64a	-0.06724222
65	0xbdaf02f7	-0.085454874
66	0x3d2f4a3e	0.042795412
67	0x3d273d7c	0.04083012
68	0x3e0fcfba	0.14044085
69	0xbdca06f4	-0.098646075
70	0x3d897e10	0.06713498
71	0x3e4c5cd2	0.19957283
72	0x3be5a60f	0.007008321
73	0xba9e8b3c	-0.0012095938
74	0x3e265ed2	0.16247109
75	0xbd692096	-0.056915842
76	0xbcc57d8a	-0.024107713
77	0xbd9c0391	-0.07617868
78	0xbd3d929a	-0.04628239
79	0x3e34e285	0.17664535
80	0xbe24b489	-0.16084494
81	0x3e30b69c	0.1725716
82	0x3d0b657d	0.034032334
83	0x3d794d7e	0.060864918
84	0xbdd9f592	-0.10642542
85	0x3dede8f8	0.11616701
86	0x3dbdd7c2	0.09269668
87	0xbe05acb7	-0.13054167
88	0x3dac976d	0.0842732
89	0x3de7fbc0	0.113273144
90	0x3dbf8fdb	0.0935361
91	0xbe156eb9	-0.14593019
92	0xbe1bdca8	-0.15220892
93	0x3e31e0e5	0.17370947
94	0xbdcf22d6	-0.10114066
95	0xbe010bfb	-0.12602226
96	0xbe39de90	-0.18151307
97	0x3de4f6c7	0.111798815
98	0xbdbd33d0	-0.09238398
99	0x3e19b54e	0.15010568
100	0x3d3a80cf	0.045532998
101	0x3e19e575	0.15028937
102	0xbeb866af	-0.3601584
103	0x3da9a25e	0.08282922
104	0xbe3b89a4	-0.18314224
105	0x3c68a585	0.014199619
106	0x3cb0a33a	0.021562207
107	0x3e82ba71	0.25532869
108	0xbcae2594	-0.021258153
109	0x3dec49bc	0.11537501
110	0x3db688ce	0.08912812
111	0x3e621607	0.22078715
112	0xbde97cc1	-0.11400748
113	0x3d8495e7	0.06473904
114	0x3ddd8b46	0.1081758
115	0x3d683b1f	0.056697007
116	0x3e9482c4	0.29006016
117	0xbd0d43e6	-0.03448858
118	0x3e139b7e	0.14414784
119	0x3e195fbc	0.14977926
120	0x3d8337e8	0.06407148
121	0x3d57450f	0.052556094
122	0x3d8c7f98	0.06860274
123	0x3e339ed6	0.1754106
124	0x3e24c761	0.16091682
125	0xbe29a6e5	-0.16567571
126	0x3cc20477	0.02368377
127	0xbdd3d3f0	-0.10343158
128	0xbe351b8f	-0.17686294
129	0xbd9f9560	-0.07792163
130	0x3e2e6837	0.17031942
131	0x3af391dd	0.0018582899
132	0xbda69d6f	-0.08135497
133	0x3dcd9b9d	0.100394465
134	0x3e7ab914	0.24484664
135	0x3de1544e	0.11002408
136	0x3e16fd73	0.1474512
137	0xbe28030d	-0.16407414
138	0xbd6c2b38	-0.057658404
139	0x3cc9c38e	0.02462938
140	0x3db961d1	0.0905186
141	0xbe4c73cf	-0.19966052
142	0x3ddd00aa	0.10791142
143	0xbe0f087b	-0.13968079
144	0xbe6b9123	-0.23004584
145	0x3ce0a96d	0.027424539
146	0xbe386637	-0.18007742
147	0x3e38c8ed	0.18045397
148	0x3dfceb0a	0.12349518
149	0xbc56ac81	-0.013102652
150	0xbe3a4326	-0.18189678
151	0xbe4f74e7	-0.20259438
152	0xbe3ea714	-0.18618423
153	0xbe3b39a9	-0.18283714
154	0x3d746a2a	0.05967156
155	0x3d893271	0.06699074
156	0xbe0f7337	-0.14008795
157	0x3c2d67c4	0.010583822
158	0x3d0558d0	0.0325554
159	0xbe24d6ff	-0.1609764
160	0xbe23ff5f	-0.16015385
161	0xbe7b28bf	-0.24527262
162	0xbd695072	-0.056961484
163	0x3dc3ee68	0.09566957
164	0xbcdf10bf	-0.027229665
165	0xbdc744ad	-0.09729896
166	0xbe406de8	-0.18791926
167	0xbd5d16c6	-0.053976797
168	0x3e02f437	0.12788473
169	0xbcd2bc31	-0.025724502
170	0xbe7554f7	-0.23958193
171	0xbebbc115	-0.36670747
172	0xbe03a771	-0.12856843
173	0xbe84a66d	-0.25908223
174	0x3d461720	0.048361897
175	0x3e419484	0.1890431
176	0xbd9e55a0	-0.077311754
177	0xbe9ccfff	-0.30627438
178	0xbe174268	-0.14771426
179	0xbb85faac	-0.0040887203
180	0xbe0e96d8	-0.1392473
181	0x3d24f91c	0.04027663
182	0x3c7520c5	0.014961426
183	0xbe703cd3	-0.23460703
184	0x3d2ded85	0.042462844
185	0xbe5c2e21	-0.21501972
186	0xbd1c10e7	-0.038102057
187	0x3e14413b	0.14478008
188	0x3e898545	0.2685949
189	0x3d982ddb	0.07430621
190	0xbc0a40c1	-0.00843829
191	0xbc192284	-0.009346608
192	0xbe95f151	-0.29285672
193	0xbe50ae16	-0.20378909
194	0xbe619e5f	-0.2203307
195	0xbdca53a4	-0.098792344
196	0xbe1f9a97	-0.15586315
197	0xbe84c018	-0.25927806
198	0x3d9ae01d	0.075622775
199	0x3e01bf78	0.12670696
200	0x3e14d02d	0.14532538
201	0x3da12b43	0.0786958
202	0xbdeabe77	-0.114621095
203	0xbdc83b27	-0.097769074
204	0xbdf92a7a	-0.12166305
205	0x3c70a180	0.014686942
206	0x3e9b0e03	0.30284128
207	0xbdfaa6db	-0.122388564
208	0x3db29522	0.08719851
209	0x3b876ef2	0.0041330988
210	0x3d8d3be0	0.06896186
211	0x3dd29a32	0.10283317
212	0x3e4621f8	0.19348896
213	0x3e06025e	0.1308684
214	0xbe098b61	-0.13432075
215	0x3de2928c	0.11063108
216	0xbd724b8f	-0.05915409
217	0xbe448059	-0.19189586
218	0xbe724b41	-0.2366152
219	0xbdd7b1dd	-0.105319716
220	0xbde5955d	-0.112101294
221	0x3d9d1271	0.07669533
222	0x3dcee811	0.10102857
223	0xbe1710ea	-0.14752546
224	0x3ea11fb6	0.31469506
225	0x3c973b41	0.018460872
226	0xbe14e097	-0.14538799
227	0xbe4ffced	-0.20311327
228	0xbe03f84c	-0.12887686
229	0x3df3e75d	0.119093634
230	0xbdecbdce	-0.1155964
231	0x3db66cab	0.089074455
232	0xbdf6221a	-0.12018223
233	0x3e0ef6bb	0.13961308
234	0x3e009533	0.12556915
235	0xbd0b692e	-0.034035854
236	0xbd7605be	-0.06006407
237	0xbd484d71	-0.04890198
238	0x3d84b1be	0.06479214
239	0xbe114883	-0.14187817
240	0x3d49d702	0.049277313
241	0x3e1e72b3	0.15473442
242	0x3e97ed48	0.2967322
243	0xbe09d7fb	-0.13461296
244	0x3dbdb244	0.09262517
245	0xbd4e2d65	-0.05033626
246	0xbd91c7b3	-0.07118168
247	0x3d58c8b4	0.05292578
248	0x3e23d59e	0.15999457
249	0xbdc6aff7	-0.097015314
250	0xbe248c03	-0.16069035
251	0xbc544e74	-0.012958158
252	0x3e26674d	0.16250344
253	0xbdbb40f9	-0.09143252
254	0x3e0e3a13	0.13889341
255	0xbd53c9ac	-0.051706

lstm.weight_hh_l0 f4 [128, 32]
0	0x3e07b575	0.13252814
1	0xbd53f28d	-0.051744986
2	0x3b22153c	0.0024731895
3	0xbcd686fd	-0.026187414
4	0x3cd5bc9d	0.026090914
5	0x3c90fcde	0.017698701
6	0xbdb112d4	-0.08646169
7	0x3ddcddd1	0.107844956
8	0xbe35a8f0	-0.17740226
9	0x3df266c6	0.11836009
10	0x3e142867	0.14468537
11	0x3d1b97e8	0.037986666
12	0xbd3258a5	-0.04354157
13	0x3e0de561	0.13857032
14	0xbd474682	-0.048651226
15	0x3c8ebe63	0.017424768
16	0x3e881e74	0.26585734
17	0x3cb19232	0.021676157
18	0x3e3e5367	0.18586503
19	0xbde99c5f	-0.114067785
20	0x3d389bbc	0.045070395
21	0xbd424324	-0.04742731
22	0xbbbd88b2	-0.0057841176
23	0x3d35f4e6	0.044423006
24	0xbd97b27f	-0.07407092
25	0x3dc75b2b	0.09734186
26	0xbdd26472	-0.10273065
27	0x3dd6429e	0.10461925
28	0x3dfa02df	0.12207579
29	0xbeb1097f	-0.34577557
30	0x3cb3411e	0.021881636
31	0x3dd5a49d	0.10431788
32	0xbd641c5b	-0.055691104
33	0x3ca2e9e8	0.019886926
34	0xbc762f7d	-0.0150259705
35	0x3e2bdf3a	0.16784373
36	0x3e5d3236	0.21601185
37	0xbd04e18f	-0.032441672
38	0x3d8d7163	0.069063924
39	0x3db15ff5	0.086608805
40	0xbdbb5b7d	-0.091483094
41	0x3e240a4f	0.16019557
42	0xbe048cf0	-0.12944388
43	0x3d5b2361	0.053500537
44	0xbdeb4523	-0.11487796
45	0x3e0987fd	0.13430782
46	0x3c35cf94	0.011096854
47	0x3b8e1332	0.0043357844
48	0x3e203f49	0.15649141
49	0x3e1e6c1f	0.15470932
50	0xbe16271c	-0.14663357
51	0x3e35bd08	0.17747891
52	0x3e1cdc18	0.15318334
53	0xbe2ac7c9	-0.16677774
54	0xbe1dd7b1	-0.15414311
55	0x3bff69cc	0.0077945944
56	0x3d8109b6	0.0630068
57	0xbcd56c78	-0.026052698
58	0xbc416d42	-0.011805834
59	0x3d9a0d90	0.07522118
60	0x3dbab2b2	0.09116115
61	0xbcc20e2b	-0.023688396
62	0xbdc71efa	-0.09722705
63	0x3dfa6538	0.12226337
64	0x3db814d6	0.08988349
65	0x3d450d27	0.048108246
66	0x3e35f8bf	0.1777067
67	0x3de3a9ff	0.111164086
68	0x3cd54081	0.026031734
69	0xbdb20b77	-0.08693593
70	0x3e2153bc	0.15754598
71	0xbe352368	-0.17689288
72	0xbd72fa1b	-0.05932055
73	0x3d01e15e	0.031709068
74	0x3dd3ecec	0.10347924
75	0x3d52a43b	0.051426154
76	0xbd3285ed	-0.043584753
77	0x3cc074e8	0.023493245
78	0xbdb0d839	-0.08634991
79	0x3c98fd3c	0.018675439
80	0xbe2eddfa	-0.17076865
81	0x3cf2f85c	0.029659443
82	0x3e13a7ee	0.14419529
83	0x3e8a47d7	0.27007934
84	0xbdde5544	-0.10856107
85	0x3d3d35b3	0.04619379
86	0x3c2f1df3	0.010688293
87	0x3d91c4ca	0.07117613
88	0x3d066327	0.032809403
89	0xbdfb4319	-0.12268657
90	0xbdc6e3f4	-0.09711447
91	0xbdb8d76c	-0.090254635
92	0xbdff0a55	-0.124531426
93	0xbd331802	-0.043724068
94	0xbd53d406	-0.051715873
95	0x3e0ef2ae	0.13959762
96	0x3de3be86	0.11120324
97	0xbc610a0d	-0.013735306
98	0x3b850918	0.004059922
99	0xbdbc7eda	-0.092038825
100	0xbdd9c33d	-0.10632942
101	0x3dceb49e	0.10093044
102	0xbdd5d7fe	-0.10441588
103	0x3ceaf72f	0.02868232
104	0x3e0b1e76	0.13585839
105	0x3d24d1c5	0.040239114
106	0xbdda48ef	-0.10658442
107	0x3d2d1115	0.04225262
108	0xbe301ead	-0.17199202
109	0xbd8b790b	-0.068101965
110	0xbbb47ea6	-0.0055082617
111	0xbca2d384	-0.01987625
112	0x3d7a1231	0.061052505
113	0x3e0c8cc6	0.13725576
114	0xbe0a5826	-0.13510188
115	0x3e2b52b5	0.16730769
116	0x3d477dd0	0.04870397
117	0x3dbf3347	0.09335952
118	0xbe2dbbe5	-0.16966207
119	0x3de25839	0.110519834
120	0x3d9ed39c	0.07755205
121	0xbd134b85	-0.035960693
122	0x3e53b560	0.20674658
123	0x3c8601d2	0.01635829
124	0x3b8af621	0.0042407666
125	0x3d9d792f	0.076891296
126	0x3dcede93	0.101010464
127	0x3ddd9b0f	0.10820591
128	0xbd2d62e1	-0.042330626
129	0x3c56847a	0.013093108
130	0xbde7b18a	-0.1131316
131	0xbdd57549	-0.10422761
132	0xbde39861	-0.11113048
133	0x3deb9c96	0.11504476
134	0xbe75637f	-0.23963736
135	0xbe3fe0ef	-0.18738149
136	0xbdcb5bb9	-0.09929604
137	0x3dcab4bb	0.09897753
138	0xbd7e3230	-0.06205958
139	0x3d9e377f	0.07725429
140	0xbd2a053d	-0.041508902
141	0x3de0f420	0.10984063
142	0xbdeaa0cf	-0.11456453
143	0x3cfa5087	0.030555977
144	0xbe05a635	-0.13051684
145	0x3e498710	0.19680429
146	0x3cb19f12	0.021682296
147	0x3d00a02e	0.03140276
148	0x3cbd323a	0.023095239
149	0xbe5af08a	-0.21380821
150	0x3d9e747e	0.07737063
151	0x3c70433a	0.014664466
152	0xbce2e6c1	-0.027697923
153	0x3d4b70a2	0.049667962
154	0x3dcbf8e5	0.09959582
155	0xbdf710f0	-0.120637774
156	0x3d5c86ce	0.053839497
157	0xbd314bd0	-0.04328519
158	0xbd4539b2	-0.048150726
159	0xbe022bd8	-0.12712038
160	0x3dbfcad4	0.09364858
161	0x3ddba150	0.10724127
162	0x3e17980f	0.148041
163	0xbc3efc37	-0.011656812
164	0x3d0243bb	0.031802874
165	0xbe2be2c6	-0.16785726
166	0x3cd31e28	0.025771216
167	0xbda09300	-0.07840538
168	0x3e218a7a	0.15775481
169	0xbd34741e	-0.04405605
170	0x3d9e1606	0.077190444
171	0x3c9d49e2	0.01920027
172	0x3c932550	0.017962128
173	0xbcde904b	-0.027168414
174	0xbd558945	-0.052132864
175	0x3e029f3e	0.12756059
176	0x3e270d5b	0.16313688
177	0xbdff6423	-0.124702714
178	0x3df34619	0.118786044
179	0xbe47d395	-0.19514306
180	0x3e87a306	0.26491565
181	0x3e552989	0.20816626
182	0x3e693725	0.22774942
183	0x3e4d339b	0.20039217
184	0x3dc70fa0	0.09719777
185	0x3cc1645d	0.023607427
186	0xbe12e0e8	-0.14343607
187	0x3d3a5064	0.045486823
188	0x3d22ca45	0.03974368
189	0xbe3fa548	-0.18715394
190	0x3e6c44e2	0.23073152
191	0x3e31bdd8	0.17357576
192	0xbe0ad01b	-0.13555948
193	0x3ca0bb92	0.01962069
194	0x3e20a75e	0.15688846
195	0xbdd28cae	-0.10280739
196	0x3ca1989d	0.019726092
197	0x3d27ad4d	0.040936757
198	0xbdeee687	-0.11665063
199	0xbce0755e	-0.027399715
200	0xbd4fb800	-0.050712585
201	0x3e1953e1	0.14973404
202	0x3d8cdb25	0.06877736
203	0xbde0cc51	-0.1097647
204	0x3e7b22b0	0.24524951
205	0x3e04d6e2	0.12972596
206	0xbd3b6cb8	-0.04575798
207	0xbc6b5df3	-0.014365661
208	0x3e21fbfb	0.15818779
209	0xbe05f4bd	-0.13081641
210	0xbb6c4d06	-0.0036056652
211	0x3d5074b1	0.050892536
212	0x3e68dcd0	0.22740483
213	0xbcaf9b6e	-0.02143642
214	0x3e2191f1	0.15778328
215	0xbdb1aa19	-0.08675022
216	0x3d33ab99	0.04386482
217	0xbd9ba452	-0.07599701
218	0x3d424903	0.04743291
219	0xbca6ee66	-0.02037735
220	0xbd8bb05f	-0.068207495
221	0x3d88407b	0.06652924
222	0x3e6dce02	0.23223117
223	0x3e0504ef	0.12990163
224	0xbe290847	-0.16507064
225	0x3df6f321	0.12058092
226	0x3e851527	0.259927
227	0xbcfc83d1	-0.030824574
228	0xbd9d0dd5	-0.07668654
229	0x3d08352e	0.03325384
230	0x3c885481	0.016641857
231	0x3dbe2029	0.09283478
232	0x3e097a64	0.13425595
233	0xbdc8ddb8	-0.098079145
234	0xbd9a6a70	-0.075398326
235	0xbc3a8203	-0.011383536
236	0x3d365b33	0.044520568
237	0xbe454222	-0.19263509
238	0x3e054277	0.13013636
239	0x3d4bbb1a	0.04973898
240	0x3c1c726c	0.009548765
241	0x3d2ca6c7	0.04215124
242	0xbe4af815	-0.19821198
243	0xbe9f3617	-0.31095955
244	0xbe12789e	-0.14303824
245	0xbe8e0a2e	-0.2774214
246	0x3d1715f0	0.036886156
247	0xbe345d61	-0.17613746
248	0x3db99094	0.09060779
249	0x3d904b46	0.07045607
250	0xbd8e4ce4	-0.069482595
251	0x3d53eb66	0.051738165
252	0xbe69175d	-0.22762819
253	0xbe0a4e9c	-0.1350655
254	0xbc07da28	-0.008291759
255	0x3d2b24a4	0.04178299

lstm.bias_ih_l0 f4 [128]
0	0xbd65688a	-0.0560079
1	0xbe0036b9	-0.12520875
2	0xbe28dcf8	-0.16490543
3	0x3e0f17c8	0.13973916
4	0x3dc901f2	0.09814824
5	0xbcb50ad0	-0.022099882
6	0x3e0483bb	0.12940876
7	0x3d106aad	0.035257984
8	0xbd461fdd	-0.04837023
9	0x3e1d801b	0.153809
10	0x3d9e3f65	0.07726935
11	0x3dcee9c6	0.101031825
12	0xbe089da2	-0.13341382
13	0xbe067a7e	-0.13132665
14	0xbe02aaa1	-0.12760402
15	0x3cf56960	0.029957473
16	0xbdaad9ff	-0.08342361
17	0xbd38f947	-0.045159604
18	0x3c9f6065	0.019455144
19	0x3e829170	0.25501585
20	0x3c9fd833	0.019512272
21	0xbe2ece61	-0.17070915
22	0x3db9fa43	0.09080937
23	0xbdd84a44	-0.1056104
24	0x3d2f8696	0.04285296
25	0x3e260715	0.16213639
26	0x3e18a7a4	0.149077
27	0x3deb71d6	0.11496322
28	0xba8d47a2	-0.0010778795
29	0xbd5615f9	-0.05226705
30	0xbe212997	-0.15738522
31	0x3a8dcfb2	0.0010819344
32	0xbc551189	-0.013004669
33	0x3ccb593c	0.024822824
34	0x3e03a507	0.12855922
35	0xbe1f0393	-0.15528707
36	0xbc43ae5a	-0.011943424
37	0xbdbc4b4d	-0.0919405
38	0x3dbeac9e	0.09310268
39	0xbcac341e	-0.021020945
40	0x3e0b64e9	0.13612713
41	0xbdb81c12	-0.08989729
42	0xbe356fd9	-0.17718448
43	0xbe0893aa	-0.1333758
44	0x3e17ffe5	0.1484371
45	0xbd21b194	-0.039475992
46	0x3cc3fdb8	0.023924693
47	0xbcf5436a	-0.029939372
48	0x3d41fefa	0.047362305
49	0xbe090dd5	-0.13384183
50	0x3e032cc2	0.12810043
51	0xbd8e3ecd	-0.06945572
52	0x3d5e627f	0.054293152
53	0x3c2f320f	0.010693087
54	0x3dce49a8	0.100726426
55	0xbd2587ae	-0.040412597
56	0xbe1ac280	-0.15113258
57	0x3dd82ac9	0.105550356
58	0x3defc6d9	0.11707849
59	0xbe1c2e9d	-0.15252157
60	0x3dc7dc48	0.09758812
61	0xbe263e50	-0.16234708
62	0x3d0b4023	0.033996712
63	0x3cb5f10d	0.022209669
64	0x3da09601	0.07841111
65	0xbe1734d6	-0.14766249
66	0xbe2004a7	-0.15626775
67	0xbe1b19e3	-0.15146594
68	0xbdb79945	-0.08964781
69	0x3d898103	0.0671406
70	0xbd06a69a	-0.032873727
71	0xbd3be4a3	-0.04587234
72	0x3e123d02	0.14281085
73	0x3cddbb2a	0.027066786
74	0x3e24bcd8	0.16087663
75	0xbdf8a1b4	-0.121402174
76	0xbdd91f32	-0.10601653
77	0xbda7da87	-0.08195978
78	0xbdcafe83	-0.099118255
79	0x3bc69dc9	0.00606129
80	0xbc956449	-0.018236296
81	0x3df4b525	0.11948613
82	0x3dbf82b5	0.09351102
83	0x3dc9eb5c	0.09859344
84	0xbddadde3	-0.10686853
85	0xbd729e10	-0.05923277
86	0xbdc1a214	-0.09454742
87	0x3e20794d	0.15671273
88	0x3b709dc4	0.003671513
89	0xbe281f18	-0.16418111
90	0xbe0f39b0	-0.1398685
91	0x3d7384bb	0.059452754
92	0x3df6f9ce	0.12059365
93	0xbd8a4dca	-0.06753118
94	0xbe066dd6	-0.13127837
95	0xbde875fb	-0.11350628
96	0x3d204ffe	0.039138786
97	0x3dc4f341	0.096167095
98	0x3d83d3c3	0.06436875
99	0xbd41a866	-0.047279738
100	0x3e0448e9	0.12918438
101	0x3d5a4e0a	0.05329708
102	0x3b08fbf7	0.0020902136
103	0xbd7cd53a	-0.061726786
104	0xbd622ad0	-0.05521661
105	0xbd89eb02	-0.06734277
106	0xbbc65344	-0.0060524065
107	0x3d840e64	0.06448057
108	0xbd0bbb68	-0.03411427
109	0x3e0027e3	0.12515216
110	0x3e0ac1ad	0.13550444
111	0xbb1a7b6b	-0.0023572098
112	0xbd0efb7f	-0.034907814
113	0x3c8c46eb	0.01712366
114	0x3c73bb6d	0.014876229
115	0x3e5c77ab	0.21530025
116	0x3cef7cc7	0.029234303
117	0xbb65c74b	-0.0035061415
118	0xbdfefd2b	-0.12450632
119	0xbe3f8b76	-0.18705544
120	0xbe1b7e30	-0.15184855
121	0x3e057988	0.13034642
122	0xbd5acf0d	-0.053420115
123	0xbe0e37f4	-0.13888532
124	0x3dc9c01e	0.098510966
125	0xbe0b574b	-0.13607518
126	0x3d977c18	0.07396716
127	0xbe1a6c9b	-0.15080492

lstm.bias_hh_l0 f4 [128]
0	0x3df4767e	0.11936663
1	0x3da3cdf0	0.07998264
2	0x3d8be63b	0.06831022
3	0xbe1329ec	-0.1437146
4	0xb902ed80	-0.00012486242
5	0x3dfce668	0.12348634
6	0x3d948f40	0.07253885
7	0xbdd32354	-0.10309473
8	0x3e00d191	0.12579943
9	0xbdbc3b16	-0.09190957
10	0x3ccc086d	0.024906361
11	0xbc8a26eb	-0.01686426
12	0xbe30d460	-0.17268515
13	0x3dc07ae6	0.09398441
14	0x3cdd969d	0.027049357
15	0xb9089171	-0.00013024152
16	0xbe0e6552	-0.13905838
17	0xbd54c9a7	-0.051950123
18	0xbdcab37c	-0.09897515
19	0xbd514d7a	-0.051099278
20	0xbdf0155f	-0.11722826
21	0xbd3eed08	-0.04661277
22	0x3a068ac2	0.0005132371
23	0xbe3dd09f	-0.18536614
24	0x3cf7859c	0.030215077
25	0x3dbada68	0.09123689
26	0xbdfe34d5	-0.12412421
27	0x3dedb0e1	0.116060026
28	0x3d97b559	0.07407636
29	0xbc8b2542	-0.01698554
30	0x3def39a2	0.116809145
31	0x3e108aaf	0.14115404
32	0xbdef00b4	-0.11670056
33	0xbd824dd2	-0.06362499
34	0x3d6bf8b0	0.057610214
35	0x3e17b91b	0.14816706
36	0xbd5c029c	-0.053713426
37	0xbddc1e9d	-0.107480265
38	0x3c845e05	0.016158113
39	0xbc87219e	-0.016495522
40	0xbe4d5d9a	-0.20055237
41	0x3ddbdb76	0.10735218
42	0xbdbfb52e	-0.09360729
43	0xbda5f223	-0.081028245
44	0xbdcef8f6	-0.10106079
45	0xbcc8cf55	-0.024512926
46	0x3cdc5e78	0.026900515
47	0xbc40d115	-0.011768599
48	0x3dcf4039	0.101196714
49	0xbd0c7210	-0.034288466
50	0xbd947aee	-0.072500095
51	0xbb94b15d	-0.004537745
52	0x3d577b27	0.05260768
53	0xbd76f150	-0.060288727
54	0x3dbd9f60	0.09258914
55	0x3e03b084	0.12860304
56	0xbd95e238	-0.073185384
57	0x3e3516fb	0.17684548
58	0x3d317b85	0.043330688
59	0xbe11cc85	-0.14238174
60	0xbd204703	-0.039130222
61	0xbd1e6a8a	-0.038675822
62	0x3d3cc57d	0.046086777
63	0xbd90bff0	-0.07067859
64	0xbe0e037a	-0.13868514
65	0xbde352f3	-0.11099806
66	0x3c0fa70c	0.008767854
67	0xbd2b14bf	-0.041767832
68	0xbdd607ef	-0.10450732
69	0xbd22b5f5	-0.03972431
70	0x3d50bf98	0.050963968
71	0x3bf89532	0.007586145
72	0xbd4c24d5	-0.049839813
73	0xbd07fce9	-0.03320018
74	0x3c8775c6	0.016535651
75	0x3cd00880	0.025394678
76	0x3dea9378	0.11453909
77	0x3dc11463	0.094277166
78	0xbda61219	-0.081089206
79	0xbd173b9e	-0.03692209
80	0xbe05f927	-0.13083325
81	0xbe22ba0a	-0.15891281
82	0x3db6e259	0.08929891
83	0xbdbcbb32	-0.09215392
84	0x3e16250d	0.14662571
85	0xbdc7180e	-0.09721385
86	0x3db4d3aa	0.08829434
87	0x3e12d101	0.14337541
88	0xbdae257c	-0.08503243
89	0xbe0fe968	-0.14053881
90	0xbcbb1894	-0.022838868
91	0xbdaafdb4	-0.08349171
92	0x3d95d66b	0.073162876
93	0xbcde6050	-0.027145535
94	0xbd069456	-0.032856308
95	0x3e2390de	0.15973231
96	0xbdb06e1f	-0.08614754
97	0x3dd0d6c5	0.10197214
98	0xbd00344a	-0.031299867
99	0xbda85519	-0.08219356
100	0x3dd72273	0.105046175
101	0x3dc185be	0.094493374
102	0xbde46451	-0.11151946
103	0x3da91518	0.082559764
104	0xbe2db9d8	-0.16965425
105	0xbd81a1c6	-0.06329684
106	0xbdc9fd7f	-0.09862804
107	0x3d923582	0.07139112
108	0x3cb69d7b	0.02229189
109	0xbe14a1ce	-0.14514849
110	0xbe1a529f	-0.1507058
111	0xbd7f29c7	-0.0622957
112	0xbd3d3bc5	-0.04619958
113	0x3d3f3198	0.046678156
114	0x3e1e3fd1	0.15454032
115	0x3e6ea023	0.23303275
116	0x3ca4976f	0.02009174
117	0x3c55466f	0.013017281
118	0x3cde0198	0.02710037
119	0xbdae8ae4	-0.08522585
120	0x3e248bcc	0.16068953
121	0x3dfd744d	0.12375698
122	0x3dc4c869	0.09608538
123	0xbd84ab00	-0.06477928
124	0x3cef2e32	0.029196832
125	0x3e1d3ea7	0.15355931
126	0xbc2bc2e7	-0.01048348
127	0x3e110061	0.14160301

attn.weight f4 [1, 32]
0	0xbe7c3f5c	-0.24633545
1	0x3d2c0c4e	0.042003922
2	0x3d826cfc	0.06368443
3	0x3d842906	0.06453137
4	0xbd89fc63	-0.06737592
5	0xbe68adbf	-0.22722529
6	0x3e4f8b06	0.20267877
7	0xbe49e8ea	-0.19717756
8	0xbc362e7a	-0.011119479
9	0xbe44eacb	-0.19230191
10	0x3e32b1d5	0.1745065
11	0x3e874fff	0.2642822
12	0x3e448cbe	0.19194314
13	0xbd6658da	-0.05623708
14	0xbe2f7dbf	-0.17137812
15	0x3d244826	0.04010787
16	0xbc8e9adc	-0.017407827
17	0x3e77fd33	0.24217682
18	0x3e22f3ee	0.15913364
19	0x3eac2a5d	0.3362607
20	0xbea21759	-0.31658438
21	0x3e89f188	0.26942086
22	0xbd800585	-0.06251053
23	0xbcf1f90f	-0.029537706
24	0xbe8d7353	-0.27627048
25	0x3e858e94	0.2608534
26	0xbe3d6f9f	-0.18499611
27	0xbca9591b	-0.020672372
28	0xbe140339	-0.14454354
29	0x3e3b67bb	0.18301289
30	0xbe3f078a	-0.1865522
31	0xbe410cad	-0.18852492

out.weight f4 [1, 32]
0	0xbd4542a3	-0.048159253
1	0xbddb1b05	-0.10698513
2	0xbdffb064	-0.12484816
3	0xbd7a7414	-0.061145857
4	0xbe14a1b6	-0.14514813
5	0xbd73437a	-0.059390523
6	0x3e1ed543	0.1551104
7	0xbc26456b	-0.0101483865
8	0xbdee2fa4	-0.116301805
9	0x3c8f18da	0.017467905
10	0x3df7b40c	0.12094888
11	0x3dfa1fd9	0.12213106
12	0xbdccc838	-0.09999126
13	0x3e22e289	0.15906729
14	0xbd9634f1	-0.073343165
15	0x3d2dbcdb	0.042416435
16	0xbd454109	-0.048157725
17	0xbdbb7ae6	-0.091543004
18	0x3b3ed146	0.0029116436
19	0x3d49a2a1	0.04922736
20	0x3e3a9f3c	0.18224806
21	0x3ca65b2f	0.020307152
22	0xbe048cd7	-0.12944351
23	0xbcf3edf8	-0.029776558
24	0xbce2ba4c	-0.027676724
25	0x3e10db1a	0.1414608
26	0xbd5d5528	-0.05403629
27	0xbdebe86b	-0.115189396
28	0xbe11667a	-0.14199248
29	0xbcc7f7ab	-0.02441009
30	0xbdecfc25	-0.1157153
31	0xbe365e3e	-0.17809388
